person_posture.tflite (tflite, 56616 bytes, 21 tensors)

model_1/logits/Conv2D i1 [3, 1, 1, 32]
49 65 122 -76 -62 8 -14 39
-12 19 34 -5 -34 -88 33 27
-48 67 57 122 -24 -23 55 -67
-106 64 -52 7 127 25 -20 37
55 -37 -70 16 -11 127 -18 -8
122 -48 -2 -82 -61 107 46 -52
92 -50 -13 -98 -116 21 106 76
25 13 4 -16 -96 -51 -2 -38
-33 74 -77 81 81 -41 -29 108
88 36 119 -4 -94 -80 86 112
-79 -54 13 -127 71 112 -46 -88
85 -49 -19 -117 -10 -74 81 -34
00000000: 3141 7ab4 c208 f227 f413 22fb dea8 211b
00000010: d043 397a e8e9 37bd 9640 cc07 7f19 ec25
00000020: 37db ba10 f57f eef8 7ad0 feae c36b 2ecc
00000030: 5cce f39e 8c15 6a4c 190d 04f0 a0cd feda
00000040: df4a b351 51d7 e36c 5824 77fc a2b0 5670
00000050: b1ca 0d81 4770 d2a8 55cf ed8b f6b6 51de

model_1/head/Conv2D i1 [32, 1, 1, 96]
-24 -45 108 9 116 -4 -81 -121
66 -113 -100 3 44 9 -33 69
-45 -20 -90 -32 -77 -96 15 113
-101 28 87 -48 111 6 -10 -81
92 -51 -94 68 -105 -69 -111 42
87 -78 -94 105 60 -108 127 -13
27 -46 -78 97 -89 -40 -98 114
21 92 122 -94 -99 91 -33 65
2 20 80 108 75 100 106 -116
110 -82 40 89 -104 24 -54 33
66 15 69 3 -49 -29 -72 102
22 113 -2 -111 18 80 24 17
-48 29 -61 2 -36 79 42 18
84 -99 -99 100 51 -20 32 57
107 -40 47 107 -50 -1 38 33
42 6 -37 114 17 7 97 -69
59 106 2 30 54 64 -8 -61
-60 12 -23 -95 -23 33 -35 -45
-18 -89 127 55 19 83 -73 -47
40 71 58 75 -54 120 -72 -81
-53 32 80 41 102 23 -12 16
-123 93 -39 52 78 -42 -36 69
-77 91 -51 -127 30 115 -78 -74
80 78 95 8 85 86 19 -8
41 41 -58 99 -30 -60 92 105
-105 100 -37 127 99 -17 87 -117
-55 -31 52 49 -103 -14 119 26
-25 80 104 14 -65 68 81 92
-70 -25 -95 -113 -78 93 119 -31
-124 -82 10 1 -90 119 -36 -79
104 46 107 -94 -33 59 22 14
-75 83 -61 8 -24 70 -42 66
00000000: e8d3 6c09 74fc af87 428f 9c03 2c09 df45
00000010: d3ec a6e0 b3a0 0f71 9b1c 57d0 6f06 f6af
00000020: 5ccd a244 97bb 912a 57b2 a269 3c94 7ff3
00000030: 1bd2 b261 a7d8 9e72 155c 7aa2 9d5b df41
00000040: 0214 506c 4b64 6a8c 6eae 2859 9818 ca21
00000050: 420f 4503 cfe3 b866 1671 fe91 1250 1811
00000060: d01d c302 dc4f 2a12 549d 9d64 33ec 2039
00000070: 6bd8 2f6b ceff 2621 2a06 db72 1107 61bb
00000080: 3b6a 021e 3640 f8c3 c40c e9a1 e921 ddd3
00000090: eea7 7f37 1353 b7d1 2847 3a4b ca78 b8af
000000a0: cb20 5029 6617 f410 855d d934 4ed6 dc45
000000b0: b35b cd81 1e73 b2b6 504e 5f08 5556 13f8
000000c0: 2929 c663 e2c4 5c69 9764 db7f 63ef 578b
000000d0: c9e1 3431 99f2 771a e750 680e bf44 515c
000000e0: bae7 a18f b25d 77e1 84ae 0a01 a677 dcb1
000000f0: 682e 6ba2 df3b 160e b553 c308 e846 d642

model_1/block_6_expand/Conv2D i1 [96, 1, 1, 16]
-36 101 -10 -127 -53 -19 -24 -68
-28 32 4 77 29 -64 5 36
-36 28 -50 8 -12 -21 8 -76
70 55 -45 30 2 -2 40 -127
-19 16 -38 47 36 39 -57 -59
127 -63 -12 -2 -26 116 -47 11
47 -55 0 -114 14 -25 -4 7
127 11 85 46 10 43 -9 107
-121 58 41 75 20 -22 -17 51
-13 -20 17 -62 -127 -8 -8 9
-26 62 127 15 30 83 -105 66
-56 64 -20 -32 19 -26 -120 41
26 -55 127 -119 78 -6 -69 111
-60 -107 77 -34 1 90 -10 76
27 88 -6 -49 90 22 3 -37
127 80 -23 13 38 -17 44 37
6 -92 8 -89 17 -57 7 -80
18 62 72 -7 5 127 98 59
15 -27 -6 127 37 -1 30 -51
-50 108 30 -17 -10 -48 -14 -13
-14 30 -47 -127 -3 2 0 42
21 -42 5 -40 -12 -38 7 16
-7 15 33 -17 87 -28 71 -63
-87 36 -6 28 -4 127 -70 -32
78 -12 -127 -3 28 -78 23 5
27 58 -88 -39 -40 127 3 29
-25 13 -24 8 9 -127 -14 19
0 -15 12 -1 8 -7 14 13
40 -33 106 -36 72 14 -127 -99
-8 -41 35 37 16 -72 -38 -40
-43 15 -25 -62 1 5 127 24
-19 37 63 -24 -20 53 28 5
00000000: dc65 f681 cbed e8bc e420 044d 1dc0 0524
00000010: dc1c ce08 f4eb 08b4 4637 d31e 02fe 2881
00000020: ed10 da2f 2427 c7c5 7fc1 f4fe e674 d10b
00000030: 2fc9 008e 0ee7 fc07 7f0b 552e 0a2b f76b
00000040: 873a 294b 14ea ef33 f3ec 11c2 81f8 f809
00000050: e63e 7f0f 1e53 9742 c840 ece0 13e6 8829
00000060: 1ac9 7f89 4efa bb6f c495 4dde 015a f64c
00000070: 1b58 facf 5a16 03db 7f50 e90d 26ef 2c25
00000080: 06a4 08a7 11c7 07b0 123e 48f9 057f 623b
00000090: 0fe5 fa7f 25ff 1ecd ce6c 1eef f6d0 f2f3
000000a0: f21e d181 fd02 002a 15d6 05d8 f4da 0710
000000b0: f90f 21ef 57e4 47c1 a924 fa1c fc7f bae0
000000c0: 4ef4 81fd 1cb2 1705 1b3a a8d9 d87f 031d
000000d0: e70d e808 0981 f213 00f1 0cff 08f9 0e0d
000000e0: 28df 6adc 480e 819d f8d7 2325 10b8 dad8
000000f0: d50f e7c2 0105 7f18 ed25 3fe8 ec35 1c05

model_1/block_5_project/Conv2D i1 [16, 1, 1, 96]
-32 -16 0 -22 14 3 -34 12
15 0 -2 10 -2 -5 -34 5
-11 0 0 -10 -5 -32 -2 9
-10 8 1 127 30 -27 38 -9
2 -1 7 8 -11 27 -45 -14
5 -1 3 40 16 10 8 7
32 6 -1 23 9 -25 -9 67
17 6 -18 -27 3 17 -4 -15
-33 -67 -10 31 9 18 14 -18
5 -25 -9 -16 -44 18 -13 1
-9 -30 27 18 -1 -8 -2 -81
3 -16 4 3 37 -34 -21 -14
29 -83 -107 -72 127 -35 62 50
-20 -80 -52 -7 13 -25 -76 58
-78 4 59 36 14 27 -13 -56
-4 -13 -40 -87 27 -21 -83 44
-39 44 7 -15 4 -6 -9 21
-31 35 -53 -30 -56 101 4 1
11 -65 28 -21 -24 44 59 23
-25 -27 -20 -45 15 -25 14 -39
-77 115 -18 -22 7 -33 -23 19
70 -107 -25 18 33 -60 40 4
0 -22 16 -10 -64 63 -18 2
17 -47 -12 41 11 11 23 105
-4 64 -62 26 93 117 40 68
14 -127 9 -18 -25 1 54 38
22 -18 -60 70 33 -1 70 10
52 33 16 -27 34 -6 58 -50
48 46 -32 62 -116 -73 36 44
22 -51 38 -9 40 -62 12 85
-10 19 -50 -13 83 -18 -15 31
12 27 32 10 32 30 21 -28
00000000: e0f0 00ea 0e03 de0c 0f00 fe0a fefb de05
00000010: f500 00f6 fbe0 fe09 f608 017f 1ee5 26f7
00000020: 02ff 0708 f51b d3f2 05ff 0328 100a 0807
00000030: 2006 ff17 09e7 f743 1106 eee5 0311 fcf1
00000040: dfbd f61f 0912 0eee 05e7 f7f0 d412 f301
00000050: f7e2 1b12 fff8 feaf 03f0 0403 25de ebf2
00000060: 1dad 95b8 7fdd 3e32 ecb0 ccf9 0de7 b43a
00000070: b204 3b24 0e1b f3c8 fcf3 d8a9 1beb ad2c
00000080: d92c 07f1 04fa f715 e123 cbe2 c865 0401
00000090: 0bbf 1ceb e82c 3b17 e7e5 ecd3 0fe7 0ed9
000000a0: b373 eeea 07df e913 4695 e712 21c4 2804
000000b0: 00ea 10f6 c03f ee02 11d1 f429 0b0b 1769
000000c0: fc40 c21a 5d75 2844 0e81 09ee e701 3626
000000d0: 16ee c446 21ff 460a 3421 10e5 22fa 3ace
000000e0: 302e e03e 8cb7 242c 16cd 26f7 28c2 0c55
000000f0: f613 cef3 53ee f11f 0c1b 200a 201e 15e4

model_1/block_5_depthwise_BN/FusedBatchNormV3;model_1/block_5_depthwise/depthwise;model_1/block_6_expand/Conv2D i1 [1, 3, 3, 96]
-45 -72 -9 127 22 74 81 -58
-13 -17 -15 -9 -28 -1 38 1
-10 -45 29 22 16 -127 127 7
-87 6 50 -29 -127 -127 39 25
11 26 57 -19 -31 -10 32 -7
-11 28 -109 72 25 -72 38 46
-19 53 -25 21 2 -8 16 48
-91 -49 -59 -20 -9 0 12 37
69 -25 74 16 -7 14 21 127
22 23 28 -2 -9 17 127 -6
-15 15 -26 19 124 22 -76 -17
0 -35 -16 -45 0 -24 -17 24
127 -127 74 107 -42 127 40 -113
72 4 -17 127 127 -102 -12 15
10 127 127 -112 127 -77 80 66
-127 -116 -65 -34 -55 46 -61 -18
-86 55 -127 -87 -46 -13 -50 65
1 127 127 78 -50 -115 -110 -49
-15 -127 46 86 68 -32 45 83
-45 42 -80 -116 -43 -40 -62 64
73 -60 27 30 -79 29 -15 87
115 127 15 20 4 58 -32 51
64 127 127 -24 -8 75 -112 127
-119 -101 4 -127 -92 -127 -40 106
-74 -14 30 -85 15 -24 71 -4
83 -35 -27 18 -18 -6 -7 -11
-7 -16 11 -4 -23 -103 34 1
-122 95 11 -56 115 49 -16 11
1 16 11 -31 -10 34 19 15
26 13 -118 63 18 -21 37 14
-16 10 -18 7 -8 1 -2 21
-66 6 -31 53 3 41 36 -2
00000000: d3b8 f77f 164a 51c6 f3ef f1f7 e4ff 2601
00000010: f6d3 1d16 1081 7f07 a906 32e3 8181 2719
00000020: 0b1a 39ed e1f6 20f9 f51c 9348 19b8 262e
00000030: ed35 e715 02f8 1030 a5cf c5ec f700 0c25
00000040: 45e7 4a10 f90e 157f 1617 1cfe f711 7ffa
00000050: f10f e613 7c16 b4ef 00dd f0d3 00e8 ef18
00000060: 7f81 4a6b d67f 288f 4804 ef7f 7f9a f40f
00000070: 0a7f 7f90 7fb3 5042 818c bfde c92e c3ee
00000080: aa37 81a9 d2f3 ce41 017f 7f4e ce8d 92cf
00000090: f181 2e56 44e0 2d53 d32a b08c d5d8 c240
000000a0: 49c4 1b1e b11d f157 737f 0f14 043a e033
000000b0: 407f 7fe8 f84b 907f 899b 0481 a481 d86a
000000c0: b6f2 1eab 0fe8 47fc 53dd e512 eefa f9f5
000000d0: f9f0 0bfc e999 2201 865f 0bc8 7331 f00b
000000e0: 0110 0be1 f622 130f 1a0d 8a3f 12eb 250e
000000f0: f00a ee07 f801 fe15 be06 e135 0329 24fe

model_1/block_5_expand/Conv2D i1 [96, 1, 1, 16]
17 87 -25 63 44 42 28 27
54 43 -55 116 6 -116 34 -127
10 59 13 -16 29 -6 127 -125
4 77 -20 -17 11 -65 19 -6
-127 50 -66 -33 -25 -32 37 111
-86 77 75 -56 -83 42 4 -59
-67 76 49 66 -48 20 67 109
-11 65 -127 0 33 -71 -85 -57
5 -18 56 72 -29 71 -22 42
4 -35 7 -16 50 13 -127 -22
0 -56 58 -21 18 -30 -6 31
-97 74 -39 -127 -35 30 -60 -2
2 15 23 -17 42 53 -76 -87
-16 0 62 -4 127 -27 -25 -37
17 37 127 -16 -22 -100 32 -23
-122 37 -108 -63 7 -14 60 -12
17 19 54 78 -50 88 41 15
64 36 12 -54 -46 1 -127 -111
40 -90 36 51 24 -37 18 19
103 23 48 18 -39 0 -127 -49
-28 -91 9 -11 -127 -15 -52 39
72 123 47 -52 -23 55 107 -6
36 -8 -11 -64 26 -43 -116 -127
-48 53 -28 -38 47 -31 36 -61
-4 53 -8 -79 -21 -41 -95 14
-64 -85 -39 21 41 127 102 52
-10 -127 -52 23 1 -97 -7 -20
68 41 4 1 43 25 72 40
-17 -61 78 24 14 14 6 125
21 52 12 -16 3 43 -45 127
3 -21 -8 63 3 -12 89 -3
-8 -127 12 -36 11 -27 -2 -32
00000000: 1157 e73f 2c2a 1c1b 362b c974 068c 2281
00000010: 0a3b 0df0 1dfa 7f83 044d ecef 0bbf 13fa
00000020: 8132 bedf e7e0 256f aa4d 4bc8 ad2a 04c5
00000030: bd4c 3142 d014 436d f541 8100 21b9 abc7
00000040: 05ee 3848 e347 ea2a 04dd 07f0 320d 81ea
00000050: 00c8 3aeb 12e2 fa1f 9f4a d981 dd1e c4fe
00000060: 020f 17ef 2a35 b4a9 f000 3efc 7fe5 e7db
00000070: 1125 7ff0 ea9c 20e9 8625 94c1 07f2 3cf4
00000080: 1113 364e ce58 290f 4024 0cca d201 8191
00000090: 28a6 2433 18db 1213 6717 3012 d900 81cf
000000a0: e4a5 09f5 81f1 cc27 487b 2fcc e937 6bfa
000000b0: 24f8 f5c0 1ad5 8c81 d035 e4da 2fe1 24c3
000000c0: fc35 f8b1 ebd7 a10e c0ab d915 297f 6634
000000d0: f681 cc17 019f f9ec 4429 0401 2b19 4828
000000e0: efc3 4e18 0e0e 067d 1534 0cf0 032b d37f
000000f0: 03eb f83f 03f4 59fd f881 0cdc 0be5 fee0

model_1/block_4_project/Conv2D i1 [16, 1, 1, 96]
3 17 -1 14 49 82 -25 -23
33 1 11 14 -1 17 37 53
-5 -17 -11 -1 91 -39 10 -18
-17 -28 -38 -115 -8 -9 46 48
127 -24 16 -8 17 -16 -2 13
-38 19 22 -27 -4 -30 -7 31
-20 26 -14 -4 -39 -27 10 -4
38 31 -21 -26 -62 38 2 12
8 19 61 -7 4 11 -9 -17
-68 -5 -4 -2 2 -78 1 -21
40 -16 -69 -38 44 -4 1 18
-10 -12 28 -34 20 8 -9 124
61 -102 16 82 -5 -66 -5 -23
-22 -95 -20 25 21 -63 -45 -41
-81 2 4 11 -34 -109 -25 21
127 -66 -65 0 -29 97 -13 31
16 16 -57 22 -29 -26 67 2
15 -100 55 -9 -37 28 52 -9
18 0 -28 -53 57 -72 32 -18
19 29 5 -92 55 -52 -2 -59
1 -81 9 39 20 46 -47 -35
-122 25 -20 73 40 78 18 -27
56 1 -68 12 -87 65 1 65
-26 6 6 -4 7 -47 31 -2
18 22 19 -39 11 3 4 29
74 -9 14 72 -17 20 55 18
-7 -15 16 -6 -16 -62 11 -36
-6 0 -23 28 2 19 102 -47
26 -71 -18 68 9 127 -49 -36
8 -22 7 33 -35 -51 -53 30
25 40 -6 -17 29 14 17 -47
-25 3 6 25 -1 -6 80 94
00000000: 0311 ff0e 3152 e7e9 2101 0b0e ff11 2535
00000010: fbef f5ff 5bd9 0aee efe4 da8d f8f7 2e30
00000020: 7fe8 10f8 11f0 fe0d da13 16e5 fce2 f91f
00000030: ec1a f2fc d9e5 0afc 261f ebe6 c226 020c
00000040: 0813 3df9 040b f7ef bcfb fcfe 02b2 01eb
00000050: 28f0 bbda 2cfc 0112 f6f4 1cde 1408 f77c
00000060: 3d9a 1052 fbbe fbe9 eaa1 ec19 15c1 d3d7
00000070: af02 040b de93 e715 7fbe bf00 e361 f31f
00000080: 1010 c716 e3e6 4302 0f9c 37f7 db1c 34f7
00000090: 1200 e4cb 39b8 20ee 131d 05a4 37cc fec5
000000a0: 01af 0927 142e d1dd 8619 ec49 284e 12e5
000000b0: 3801 bc0c a941 0141 e606 06fc 07d1 1ffe
000000c0: 1216 13d9 0b03 041d 4af7 0e48 ef14 3712
000000d0: f9f1 10fa f0c2 0bdc fa00 e91c 0213 66d1
000000e0: 1ab9 ee44 097f cfdc 08ea 0721 ddcd cb1e
000000f0: 1928 faef 1d0e 11d1 e703 0619 fffa 505e

model_1/block_4_depthwise_BN/FusedBatchNormV3;model_1/block_4_depthwise/depthwise;model_1/block_6_expand/Conv2D i1 [1, 3, 3, 96]
-18 6 -19 106 -17 23 -63 -55
16 -5 99 -9 5 -7 -3 54
6 15 -31 3 75 2 32 -34
2 18 43 49 21 10 23 47
-5 30 12 -15 5 50 -65 -25
20 11 27 19 -85 -52 26 -5
-12 -19 -9 -7 49 6 -8 1
-4 -34 30 -30 26 -3 127 28
-12 -10 9 -51 68 36 3 -8
77 -34 70 5 16 -127 30 64
2 15 127 -13 38 30 -28 -19
35 -4 -14 81 0 20 -2 13
-50 12 -7 9 51 -5 -10 -127
37 15 -127 -4 -16 -11 8 93
17 -30 -18 -15 81 -98 127 25
-61 -33 -107 -14 28 37 -49 17
119 14 -10 0 -24 127 -67 -127
9 -18 -31 13 46 -127 127 -45
-76 49 48 7 40 -64 33 55
36 43 -101 86 127 33 4 -20
43 -37 -92 0 39 -29 -18 47
-49 -50 108 -3 -30 -62 -33 63
-63 63 -12 10 -12 47 54 -39
-26 54 -13 71 -127 -31 24 -127
0 -2 -22 -73 8 19 38 21
-4 -1 3 63 1 -12 -8 5
-13 17 -15 18 4 24 22 -32
-1 -32 7 13 -6 3 45 -79
44 19 12 -23 12 5 -37 -20
6 4 -15 10 23 -29 22 0
4 -7 4 -5 5 6 -4 8
-7 46 8 -2 10 -19 3 -17
00000000: ee06 ed6a ef17 c1c9 10fb 63f7 05f9 fd36
00000010: 060f e103 4b02 20de 0212 2b31 150a 172f
00000020: fb1e 0cf1 0532 bfe7 140b 1b13 abcc 1afb
00000030: f4ed f7f9 3106 f801 fcde 1ee2 1afd 7f1c
00000040: f4f6 09cd 4424 03f8 4dde 4605 1081 1e40
00000050: 020f 7ff3 261e e4ed 23fc f251 0014 fe0d
00000060: ce0c f909 33fb f681 250f 81fc f0f5 085d
00000070: 11e2 eef1 519e 7f19 c3df 95f2 1c25 cf11
00000080: 770e f600 e87f bd81 09ee e10d 2e81 7fd3
00000090: b431 3007 28c0 2137 242b 9b56 7f21 04ec
000000a0: 2bdb a400 27e3 ee2f cfce 6cfd e2c2 df3f
000000b0: c13f f40a f42f 36d9 e636 f347 81e1 1881
000000c0: 00fe eab7 0813 2615 fcff 033f 01f4 f805
000000d0: f311 f112 0418 16e0 ffe0 070d fa03 2db1
000000e0: 2c13 0ce9 0c05 dbec 0604 f10a 17e3 1600
000000f0: 04f9 04fb 0506 fc08 f92e 08fe 0aed 03ef

model_1/block_4_expand/Conv2D i1 [96, 1, 1, 16]
8 -17 73 127 18 -16 21 -33
61 -3 -39 -64 35 66 0 -51
6 92 -4 2 98 15 -8 0
76 107 5 127 -3 -8 80 -79
18 -83 9 11 -35 48 -43 91
-55 -105 16 104 -26 -127 76 -95
122 127 3 45 -116 1 -79 -30
2 -16 102 -60 -46 106 -27 -47
8 1 10 13 -48 41 -4 62
-68 -32 0 -8 1 -127 37 4
113 -44 -30 -19 7 -96 -30 12
-2 4 -127 14 12 -5 -14 33
-124 -65 -28 127 -86 16 -43 49
-124 -76 -78 -65 57 61 -24 100
-14 24 -107 52 55 -127 -35 57
2 -38 11 0 -1 20 -49 23
20 -39 -5 -20 15 25 -57 -47
-7 -1 -56 10 -127 5 2 23
29 -69 51 121 11 42 16 -63
127 -61 20 -20 20 29 -78 41
-127 -59 -13 -33 95 41 30 52
94 -74 -79 14 92 -112 -88 88
40 -20 -127 31 64 39 -25 45
1 -43 -7 -19 -4 24 -44 -17
74 -41 -6 13 -32 -60 -79 -53
31 -12 -127 -21 -72 -23 -7 79
1 -23 47 -70 41 -24 -69 -125
-4 -127 -5 -20 42 -7 50 -9
-79 35 -96 -47 63 -127 45 -61
42 5 7 -85 30 110 4 33
28 -6 63 36 50 -45 -33 4
12 -65 -56 -13 -127 -63 -26 46
00000000: 08ef 497f 12f0 15df 3dfd d9c0 2342 00cd
00000010: 065c fc02 620f f800 4c6b 057f fdf8 50b1
00000020: 12ad 090b dd30 d55b c997 1068 e681 4ca1
00000030: 7a7f 032d 8c01 b1e2 02f0 66c4 d26a e5d1
00000040: 0801 0a0d d029 fc3e bce0 00f8 0181 2504
00000050: 71d4 e2ed 07a0 e20c fe04 810e 0cfb f221
00000060: 84bf e47f aa10 d531 84b4 b2bf 393d e864
00000070: f218 9534 3781 dd39 02da 0b00 ff14 cf17
00000080: 14d9 fbec 0f19 c7d1 f9ff c80a 8105 0217
00000090: 1dbb 3379 0b2a 10c1 7fc3 14ec 141d b229
000000a0: 81c5 f3df 5f29 1e34 5eb6 b10e 5c90 a858
000000b0: 28ec 811f 4027 e72d 01d5 f9ed fc18 d4ef
000000c0: 4ad7 fa0d e0c4 b1cb 1ff4 81eb b8e9 f94f
000000d0: 01e9 2fba 29e8 bb83 fc81 fbec 2af9 32f7
000000e0: b123 a0d1 3f81 2dc3 2a05 07ab 1e6e 0421
000000f0: 1cfa 3f24 32d3 df04 0cbf c8f3 81c1 e62e

model_1/block_3_project/Conv2D i1 [16, 1, 1, 48]
-24 11 -28 14 18 9 5 114
-49 18 45 -3 16 -15 -13 12
18 -12 -9 -2 68 -5 20 127
-7 93 -4 -13 19 -20 22 -22
-17 53 23 -52 17 42 27 -7
-102 -20 20 38 29 29 -122 -55
-35 -10 19 14 -35 9 -4 53
-46 -37 3 -38 -28 -9 1 -9
-27 110 -12 21 8 15 -28 -18
24 -31 10 23 -34 -81 -34 11
-21 -7 35 0 -3 -42 2 15
-27 -30 127 5 10 -1 19 -9
-17 -2 -9 -40 0 -68 9 -25
-3 12 16 22 17 14 -11 7
1 -20 -20 -21 -3 0 -2 -127
-16 72 -13 4 1 -19 -2 -3
-10 57 11 -1 23 14 25 -3
-39 1 -19 -7 2 -9 16 6
-3 34 4 -33 2 -2 2 -7
-23 -7 -3 36 -127 3 -6 -4
-1 -1 -19 -6 -31 1 6 16
-9 -15 1 24 -7 18 7 16
5 1 18 19 -9 29 36 9
10 5 23 -24 9 -1 2 17
31 -30 8 7 20 32 24 -17
-34 6 -6 -18 1 14 1 15
21 -10 -79 0 -8 11 11 70
3 -25 0 45 10 -70 15 12
11 -34 30 -127 11 34 5 22
-15 19 8 -26 -15 -20 8 3
26 10 -17 62 0 -6 12 26
3 -3 48 13 3 62 12 5
00000000: e80b e40e 1209 0572 cf12 2dfd 10f1 f30c
00000010: 12f4 f7fe 44fb 147f f95d fcf3 13ec 16ea
00000020: ef35 17cc 112a 1bf9 9aec 1426 1d1d 86c9
00000030: ddf6 130e dd09 fc35 d2db 03da e4f7 01f7
00000040: e56e f415 080f e4ee 18e1 0a17 deaf de0b
00000050: ebf9 2300 fdd6 020f e5e2 7f05 0aff 13f7
00000060: effe f7d8 00bc 09e7 fd0c 1016 110e f507
00000070: 01ec eceb fd00 fe81 f048 f304 01ed fefd
00000080: f639 0bff 170e 19fd d901 edf9 02f7 1006
00000090: fd22 04df 02fe 02f9 e9f9 fd24 8103 fafc
000000a0: ffff edfa e101 0610 f7f1 0118 f912 0710
000000b0: 0501 1213 f71d 2409 0a05 17e8 09ff 0211
000000c0: 1fe2 0807 1420 18ef de06 faee 010e 010f
000000d0: 15f6 b100 f80b 0b46 03e7 002d 0aba 0f0c
000000e0: 0bde 1e81 0b22 0516 f113 08e6 f1ec 0803
000000f0: 1a0a ef3e 00fa 0c1a 03fd 300d 033e 0c05

model_1/block_3_depthwise_BN/FusedBatchNormV3;model_1/block_3_depthwise/depthwise i1 [1, 3, 3, 48]
71 -93 98 71 53 -33 106 -64
60 -91 -80 47 53 -43 -71 -91
100 81 50 80 66 -72 -83 50
-33 -41 -65 -65 -65 61 -62 -115
-10 40 69 64 -64 53 -50 -24
51 -72 56 61 -92 11 75 -35
83 -97 127 84 -76 -68 -56 -84
95 -106 -64 75 80 -108 -95 92
-38 98 84 127 86 -112 51 71
-51 -77 -69 -81 56 78 -29 -127
-82 78 81 84 -80 82 -83 -18
76 -92 80 88 -72 -127 92 -105
35 -50 70 36 18 -42 -47 -38
43 -33 4 35 30 -79 -54 -2
-53 38 35 70 33 -52 30 25
-28 -45 -44 -23 34 30 89 -90
-83 45 36 34 -29 42 -37 -12
42 -39 33 41 -4 -9 36 -76
94 -111 -42 94 56 -81 127 -90
87 -114 -71 82 84 -108 -12 -127
127 108 74 -38 84 108 -127 72
73 -75 -96 -98 -127 86 -69 -10
-87 70 107 97 -85 77 -80 89
84 -101 86 91 -87 108 94 -94
127 -127 -67 127 -127 -127 -89 -127
127 -127 -127 127 127 -127 -22 99
-63 127 127 -51 127 127 69 127
127 -127 -127 -127 53 127 -28 15
-127 127 127 127 -127 127 -127 127
127 -127 127 127 -127 -10 127 -127
63 -79 -34 66 38 -64 -48 -62
55 -43 -59 58 48 -52 -15 11
00000000: 47a3 6247 35df 6ac0 3ca5 b02f 35d5 b9a5
00000010: 6451 3250 42b8 ad32 dfd7 bfbf bf3d c28d
00000020: f628 4540 c035 cee8 33b8 383d a40b 4bdd
00000030: 539f 7f54 b4bc c8ac 5f96 c04b 5094 a15c
00000040: da62 547f 5690 3347 cdb3 bbaf 384e e381
00000050: ae4e 5154 b052 adee 4ca4 5058 b881 5c97
00000060: 23ce 4624 12d6 d1da 2bdf 0423 1eb1 cafe
00000070: cb26 2346 21cc 1e19 e4d3 d4e9 221e 59a6
00000080: ad2d 2422 e32a dbf4 2ad9 2129 fcf7 24b4
00000090: 5e91 d65e 38af 7fa6 578e b952 5494 f481
000000a0: 7f6c 4ada 546c 8148 49b5 a09e 8156 bbf6
000000b0: a946 6b61 ab4d b059 549b 565b a96c 5ea2
000000c0: 7f81 bd7f 8181 a781 7f81 817f 7f81 ea63
000000d0: c17f 7fcd 7f7f 457f 7f81 8181 357f e40f
000000e0: 817f 7f7f 817f 817f 7f81 7f7f 81f6 7f81
000000f0: 3fb1 de42 26c0 d0c2 37d5 c53a 30cc f10b

model_1/block_3_expand/Conv2D i1 [48, 1, 1, 8]
-127 5 -6 69 -33 37 21 -31
38 65 51 23 12 -35 107 127
-29 -5 -7 -3 -127 -12 9 8
104 2 -5 -103 -127 9 40 -29
-127 71 -6 -14 79 -39 51 30
-107 -29 13 0 -127 1 16 103
-17 -127 18 -22 17 -9 -5 31
-65 -7 4 93 127 -25 -33 0
85 3 -5 -127 5 -23 -34 -29
-16 -127 -17 -8 12 91 -82 75
-103 4 11 15 -127 74 72 -25
114 6 30 19 -54 -44 -38 -127
5 16 44 -9 4 -77 127 66
70 -22 3 -13 113 125 127 -52
127 82 3 12 -116 -20 -31 -21
-16 -127 13 -12 14 10 3 30
-52 -15 -8 -6 -127 -3 14 7
-17 109 -113 -3 16 -127 87 -91
127 -24 -41 8 -62 23 15 98
127 -43 -27 -18 45 1 38 -11
127 31 -23 115 3 29 -7 -61
9 41 -51 24 -13 94 -127 -98
-127 28 47 -6 -51 12 -45 -29
-36 -52 8 14 -127 60 77 -22
127 14 11 -14 -74 -15 -11 -5
24 -19 5 -23 127 54 53 -21
-6 -87 3 -38 10 -127 78 -43
-15 -127 34 -14 -6 -50 27 -8
-81 38 -4 23 -39 -37 127 82
-17 53 14 6 3 57 -111 -127
127 -15 12 4 -73 4 -35 -16
-22 -31 68 -24 29 -79 127 72
00000000: 8105 fa45 df25 15e1 2641 3317 0cdd 6b7f
00000010: e3fb f9fd 81f4 0908 6802 fb99 8109 28e3
00000020: 8147 faf2 4fd9 331e 95e3 0d00 8101 1067
00000030: ef81 12ea 11f7 fb1f bff9 045d 7fe7 df00
00000040: 5503 fb81 05e9 dee3 f081 eff8 0c5b ae4b
00000050: 9904 0b0f 814a 48e7 7206 1e13 cad4 da81
00000060: 0510 2cf7 04b3 7f42 46ea 03f3 717d 7fcc
00000070: 7f52 030c 8cec e1eb f081 0df4 0e0a 031e
00000080: ccf1 f8fa 81fd 0e07 ef6d 8ffd 1081 57a5
00000090: 7fe8 d708 c217 0f62 7fd5 e5ee 2d01 26f5
000000a0: 7f1f e973 031d f9c3 0929 cd18 f35e 819e
000000b0: 811c 2ffa cd0c d3e3 dccc 080e 813c 4dea
000000c0: 7f0e 0bf2 b6f1 f5fb 18ed 05e9 7f36 35eb
000000d0: faa9 03da 0a81 4ed5 f181 22f2 face 1bf8
000000e0: af26 fc17 d9db 7f52 ef35 0e06 0339 9181
000000f0: 7ff1 0c04 b704 ddf0 eae1 44e8 1db1 7f48

model_1/block_2_project/Conv2D i1 [8, 1, 1, 48]
-55 -18 -32 10 4 -12 -1 -9
-121 127 -24 109 110 4 63 -27
4 -31 3 5 3 -12 -19 -29
18 -95 3 67 -22 10 23 -38
0 -76 116 21 1 -5 -9 -11
116 -2 41 -10 -25 23 -11 -19
-11 37 127 8 -2 -29 7 -70
34 3 24 6 -27 4 -8 -119
13 -72 13 5 -39 40 26 -39
-18 -5 16 0 21 -1 15 -8
-2 4 14 8 -20 -35 62 -68
8 48 -21 31 -19 9 20 -2
11 -54 11 -40 31 23 -8 -23
6 1 -6 11 -16 68 11 0
-39 125 -28 -27 -16 30 -38 -6
127 1 6 -2 -28 -2 0 -35
-11 -8 -1 4 -2 -6 -7 3
8 -25 -20 -4 8 21 -23 -32
4 -87 -6 -2 2 -3 -9 0
-9 -8 20 19 12 -12 43 -1
-4 -29 5 17 -10 21 -23 9
3 58 -7 5 -7 2 127 -3
14 0 -1 -5 -26 -16 -11 16
-15 6 -15 29 -13 -5 -2 26
-113 4 -1 8 -3 -43 3 6
36 -39 19 -20 -33 3 -19 -14
2 14 1 39 5 -17 10 1
-7 44 11 107 -1 2 -5 -32
-2 -127 -38 4 9 -6 7 -5
-45 -2 -13 21 -44 3 2 0
-5 17 19 1 -41 13 -9 45
23 -3 8 10 -7 -37 11 42
00000000: c9ee e00a 04f4 fff7 877f e86d 6e04 3fe5
00000010: 04e1 0305 03f4 ede3 12a1 0343 ea0a 17da
00000020: 00b4 7415 01fb f7f5 74fe 29f6 e717 f5ed
00000030: f525 7f08 fee3 07ba 2203 1806 e504 f889
00000040: 0db8 0d05 d928 1ad9 eefb 1000 15ff 0ff8
00000050: fe04 0e08 ecdd 3ebc 0830 eb1f ed09 14fe
00000060: 0bca 0bd8 1f17 f8e9 0601 fa0b f044 0b00
00000070: d97d e4e5 f01e dafa 7f01 06fe e4fe 00dd
00000080: f5f8 ff04 fefa f903 08e7 ecfc 0815 e9e0
00000090: 04a9 fafe 02fd f700 f7f8 1413 0cf4 2bff
000000a0: fce3 0511 f615 e909 033a f905 f902 7ffd
000000b0: 0e00 fffb e6f0 f510 f106 f11d f3fb fe1a
000000c0: 8f04 ff08 fdd5 0306 24d9 13ec df03 edf2
000000d0: 020e 0127 05ef 0a01 f92c 0b6b ff02 fbe0
000000e0: fe81 da04 09fa 07fb d3fe f315 d403 0200
000000f0: fb11 1301 d70d f72d 17fd 080a f9db 0b2a

model_1/block_2_depthwise_BN/FusedBatchNormV3;model_1/block_2_depthwise/depthwise;model_1/block_3_depthwise/depthwise i1 [1, 3, 3, 48]
2 -2 20 108 4 81 -1 27
16 8 9 8 -10 -8 -44 7
-1 8 -21 -112 -6 -22 127 -9
-3 7 -6 7 -6 4 16 100
21 29 38 -28 1 33 -1 4
18 -68 -8 -8 17 2 -8 -10
127 10 15 -127 27 87 10 10
125 127 7 44 -51 -23 5 7
127 -55 -58 -55 -99 25 -107 15
17 71 -32 -84 22 20 11 -126
6 -61 127 9 -40 -48 -6 120
-78 -98 -31 3 -34 -8 -127 22
-32 -3 8 14 -1 65 4 17
27 8 -14 32 -15 -2 16 3
-102 28 -4 80 -31 -12 -17 -6
-4 -60 -3 27 -18 5 5 -23
9 -24 16 -20 0 46 41 -10
50 35 -16 11 -42 3 -2 -6
126 7 0 -99 14 -27 35 -17
9 9 -12 53 -7 1 19 -34
0 -49 -57 -84 11 -73 -122 -18
5 99 -15 -127 -9 32 12 -110
18 -53 -3 127 -3 57 -40 40
-62 -127 39 -89 -43 -14 -14 -5
28 -127 -127 113 -127 -127 -127 -127
-127 -95 127 -127 127 127 35 -127
-82 127 127 -107 127 127 111 127
127 -127 -127 27 -127 -127 95 127
-127 127 -29 -42 127 -127 127 127
127 -81 127 127 127 -122 99 106
56 6 48 -14 5 -61 44 17
-23 14 -105 -8 0 -39 127 3
00000000: 02fe 146c 0451 ff1b 1008 0908 f6f8 d407
00000010: ff08 eb90 faea 7ff7 fd07 fa07 fa04 1064
00000020: 151d 26e4 0121 ff04 12bc f8f8 1102 f8f6
00000030: 7f0a 0f81 1b57 0a0a 7d7f 072c cde9 0507
00000040: 7fc9 c6c9 9d19 950f 1147 e0ac 1614 0b82
00000050: 06c3 7f09 d8d0 fa78 b29e e103 def8 8116
00000060: e0fd 080e ff41 0411 1b08 f220 f1fe 1003
00000070: 9a1c fc50 e1f4 effa fcc4 fd1b ee05 05e9
00000080: 09e8 10ec 002e 29f6 3223 f00b d603 fefa
00000090: 7e07 009d 0ee5 23ef 0909 f435 f901 13de
000000a0: 00cf c7ac 0bb7 86ee 0563 f181 f720 0c92
000000b0: 12cb fd7f fd39 d828 c281 27a7 d5f2 f2fb
000000c0: 1c81 8171 8181 8181 81a1 7f81 7f7f 2381
000000d0: ae7f 7f95 7f7f 6f7f 7f81 811b 8181 5f7f
000000e0: 817f e3d6 7f81 7f7f 7faf 7f7f 7f86 636a
000000f0: 3806 30f2 05c3 2c11 e90e 97f8 00d9 7f03

model_1/block_2_expand/Conv2D i1 [48, 1, 1, 8]
78 30 -10 -4 127 13 -35 -14
-19 -9 2 127 17 -5 3 22
30 -127 -22 39 -4 -77 88 15
127 -19 -6 23 -22 -32 25 -8
3 -49 127 -12 -7 -52 12 -91
58 5 -7 1 127 8 1 0
-15 90 -20 127 26 37 -77 -52
-2 127 0 5 -7 -11 6 -8
127 47 -9 22 -45 -22 12 -32
-127 14 3 15 50 -1 -10 4
-80 -27 0 127 49 6 -2 9
-127 4 13 -56 26 7 -25 -43
127 40 12 29 -54 -18 -3 -68
0 73 -127 9 -4 118 -93 104
-38 -29 -6 127 21 3 -11 -19
-6 127 -1 -2 -2 -22 8 -50
-32 -126 -4 10 -4 -118 127 -21
23 127 1 -7 7 72 -84 -20
-4 41 -127 -3 14 70 -34 74
-76 -3 -4 -1 -127 -6 22 46
-127 -21 -20 0 83 -41 53 -10
-59 -2 -4 -4 -127 4 12 -5
-127 -21 4 3 67 -6 35 44
-23 -22 -4 -8 1 74 -127 -93
-3 36 -127 8 4 59 -17 79
86 -48 -2 127 -52 10 13 -45
9 -20 -4 1 -10 119 127 -29
72 -7 -13 6 127 29 45 -27
1 127 -49 9 5 94 -45 116
-6 10 -8 -3 -1 79 -127 -81
8 -3 2 -127 -10 4 -2 -18
-52 12 2 1 -127 6 12 0
00000000: 4e1e f6fc 7f0d ddf2 edf7 027f 11fb 0316
00000010: 1e81 ea27 fcb3 580f 7fed fa17 eae0 19f8
00000020: 03cf 7ff4 f9cc 0ca5 3a05 f901 7f08 0100
00000030: f15a ec7f 1a25 b3cc fe7f 0005 f9f5 06f8
00000040: 7f2f f716 d3ea 0ce0 810e 030f 32ff f604
00000050: b0e5 007f 3106 fe09 8104 0dc8 1a07 e7d5
00000060: 7f28 0c1d caee fdbc 0049 8109 fc76 a368
00000070: dae3 fa7f 1503 f5ed fa7f fffe feea 08ce
00000080: e082 fc0a fc8a 7feb 177f 01f9 0748 acec
00000090: fc29 81fd 0e46 de4a b4fd fcff 81fa 162e
000000a0: 81eb ec00 53d7 35f6 c5fe fcfc 8104 0cfb
000000b0: 81eb 0403 43fa 232c e9ea fcf8 014a 81a3
000000c0: fd24 8108 043b ef4f 56d0 fe7f cc0a 0dd3
000000d0: 09ec fc01 f677 7fe3 48f9 f306 7f1d 2de5
000000e0: 017f cf09 055e d374 fa0a f8fd ff4f 81af
000000f0: 08fd 0281 f604 feee cc0c 0201 8106 0c00

model_1/block_1_project/Conv2D i1 [8, 1, 1, 48]
-9 -1 13 -96 9 33 2 9
5 6 7 1 102 0 -2 5
0 -5 -9 -2 80 0 3 4
31 37 16 16 3 1 4 -127
8 6 -3 0 -28 3 -15 35
8 -27 -13 4 -2 -2 3 0
-40 -10 -6 -8 43 29 -32 75
24 3 -35 -24 11 0 18 33
0 39 18 -50 -2 19 127 19
-28 -5 49 2 24 -4 13 -18
13 -9 -10 -29 6 -51 14 5
-2 -7 -79 -10 -30 7 -52 -99
-54 14 -4 9 41 -14 26 27
-15 61 7 -12 4 0 2 47
0 17 -127 23 1 12 8 -9
-32 0 40 4 12 27 20 3
9 -9 -15 -14 12 5 5 4
34 -5 -37 8 20 -53 22 11
3 7 1 13 -7 21 2 0
62 15 -8 -6 23 0 -26 -4
0 7 -9 -4 -4 2 3 -13
-10 -2 -9 -5 -13 -2 -4 -2
-48 45 -50 1 12 2 5 -127
-2 3 1 -48 -2 2 1 6
-3 -6 83 42 5 -15 -2 0
5 -3 -4 -9 -83 0 -18 0
0 11 8 -1 69 6 2 -6
-16 32 -4 59 -7 -5 -1 109
7 3 3 -1 15 -15 -11 -18
-5 -127 6 6 1 -5 -1 2
-12 44 6 -11 3 47 28 10
-23 31 7 59 28 0 -127 -3
00000000: f7ff 0da0 0921 0209 0506 0701 6600 fe05
00000010: 00fb f7fe 5000 0304 1f25 1010 0301 0481
00000020: 0806 fd00 e403 f123 08e5 f304 fefe 0300
00000030: d8f6 faf8 2b1d e04b 1803 dde8 0b00 1221
00000040: 0027 12ce fe13 7f13 e4fb 3102 18fc 0dee
00000050: 0df7 f6e3 06cd 0e05 fef9 b1f6 e207 cc9d
00000060: ca0e fc09 29f2 1a1b f13d 07f4 0400 022f
00000070: 0011 8117 010c 08f7 e000 2804 0c1b 1403
00000080: 09f7 f1f2 0c05 0504 22fb db08 14cb 160b
00000090: 0307 010d f915 0200 3e0f f8fa 1700 e6fc
000000a0: 0007 f7fc fc02 03f3 f6fe f7fb f3fe fcfe
000000b0: d02d ce01 0c02 0581 fe03 01d0 fe02 0106
000000c0: fdfa 532a 05f1 fe00 05fd fcf7 ad00 ee00
000000d0: 000b 08ff 4506 02fa f020 fc3b f9fb ff6d
000000e0: 0703 03ff 0ff1 f5ee fb81 0606 01fb ff02
000000f0: f42c 06f5 032f 1c0a e91f 073b 1c00 81fd

model_1/block_1_depthwise_BN/FusedBatchNormV3;model_1/block_1_depthwise/depthwise;model_1/block_3_depthwise/depthwise i1 [1, 3, 3, 48]
-42 -23 -7 -16 6 -39 -79 -68
-28 -51 8 64 33 -71 115 -43
-113 -84 36 -7 0 -69 -112 -79
-34 -127 -64 -23 70 13 96 27
-127 -89 -7 55 18 48 -127 78
-75 -13 107 -108 -3 -36 -87 110
76 10 -28 -27 57 -127 -127 -82
62 -76 -114 106 38 -82 -1 61
-52 -112 59 6 11 -111 -127 -70
-5 -126 -119 -39 -52 20 -55 53
29 -127 65 85 13 72 -93 127
-127 7 127 -127 1 -22 -127 97
-30 41 7 -4 -65 -109 -59 -18
89 -10 -127 37 7 -71 -101 -12
-127 -25 28 11 -17 -75 -35 -25
-11 -28 -57 -12 -10 16 -24 10
107 -87 72 32 15 35 -5 16
-79 3 7 -81 -18 5 -56 16
-84 -127 -45 -43 -11 54 99 -105
-26 -109 -19 110 88 -64 27 -98
-121 -93 89 -76 41 -86 -104 -127
42 -122 -78 -41 127 -59 127 85
-42 -86 -14 84 -35 -77 -107 90
41 60 104 -110 -91 -119 80 119
127 -83 -127 -127 127 40 94 -127
100 -127 -109 127 127 -14 -7 127
-60 -127 127 -127 127 -127 -122 -119
127 -99 -127 -127 -116 -127 -69 127
30 -109 127 127 -67 -127 -97 89
59 127 127 -116 -112 -127 124 127
-51 29 -61 -84 -121 -23 31 -37
127 -21 -76 35 55 -70 -25 -45
00000000: d6e9 f9f0 06d9 b1bc e4cd 0840 21b9 73d5
00000010: 8fac 24f9 00bb 90b1 de81 c0e9 460d 601b
00000020: 81a7 f937 1230 814e b5f3 6b94 fddc a96e
00000030: 4c0a e4e5 3981 81ae 3eb4 8e6a 26ae ff3d
00000040: cc90 3b06 0b91 81ba fb82 89d9 cc14 c935
00000050: 1d81 4155 0d48 a37f 8107 7f81 01ea 8161
00000060: e229 07fc bf93 c5ee 59f6 8125 07b9 9bf4
00000070: 81e7 1c0b efb5 dde7 f5e4 c7f4 f610 e80a
00000080: 6ba9 4820 0f23 fb10 b103 07af ee05 c810
00000090: ac81 d3d5 f536 6397 e693 ed6e 58c0 1b9e
000000a0: 87a3 59b4 29aa 9881 2a86 b2d7 7fc5 7f55
000000b0: d6aa f254 ddb3 955a 293c 6892 a589 5077
000000c0: 7fad 8181 7f28 5e81 6481 937f 7ff2 f97f
000000d0: c481 7f81 7f81 8689 7f9d 8181 8c81 bb7f
000000e0: 1e93 7f7f bd81 9f59 3b7f 7f8c 9081 7c7f
000000f0: cd1d c3ac 87e9 1fdb 7feb b423 37ba e7d3

model_1/block_1_expand/Conv2D i1 [48, 1, 1, 8]
16 -127 43 -43 24 -29 -40 23
60 61 -24 -85 15 -13 -69 127
34 1 -52 127 46 127 53 90
91 81 -94 127 -112 -5 -7 13
-45 -100 71 19 10 24 -46 -127
23 2 -29 39 2 -20 38 127
48 -2 -124 -91 127 23 62 -30
127 18 27 -23 32 -13 88 -59
14 -104 17 110 9 20 -7 -127
107 -127 16 9 -12 14 -121 99
-127 -37 -98 22 16 -2 -116 59
-17 -39 -8 -98 -127 -30 44 -16
19 1 -48 67 -82 -26 61 127
0 0 0 0 0 0 0 0
-7 -39 -9 6 47 127 49 41
49 3 13 -127 76 53 -58 81
0 0 0 0 0 0 0 0
18 20 127 26 -35 -16 36 35
86 -127 40 34 -8 24 -121 -1
-127 -18 28 70 -76 -99 -111 67
31 28 -37 100 -23 -127 -3 59
50 19 127 10 -9 -12 63 5
-77 -16 -127 0 7 1 -97 7
-107 124 -8 -21 12 -20 127 -82
4 -62 -53 86 -14 -59 100 127
13 52 44 50 127 125 -79 -64
-91 -35 -127 -5 12 11 -100 -1
0 -20 -40 15 -58 127 71 50
-9 -19 -18 39 21 127 56 56
87 36 127 -10 -20 -23 62 -10
-70 127 -23 -30 6 -20 105 -38
-50 -104 -13 3 46 -81 127 116
00000000: 1081 2bd5 18e3 d817 3c3d e8ab 0ff3 bb7f
00000010: 2201 cc7f 2e7f 355a 5b51 a27f 90fb f90d
00000020: d39c 4713 0a18 d281 1702 e327 02ec 267f
00000030: 30fe 84a5 7f17 3ee2 7f12 1be9 20f3 58c5
00000040: 0e98 116e 0914 f981 6b81 1009 f40e 8763
00000050: 81db 9e16 10fe 8c3b efd9 f89e 81e2 2cf0
00000060: 1301 d043 aee6 3d7f 0000 0000 0000 0000
00000070: f9d9 f706 2f7f 3129 3103 0d81 4c35 c651
00000080: 0000 0000 0000 0000 1214 7f1a ddf0 2423
00000090: 5681 2822 f818 87ff 81ee 1c46 b49d 9143
000000a0: 1f1c db64 e981 fd3b 3213 7f0a f7f4 3f05
000000b0: b3f0 8100 0701 9f07 957c f8eb 0cec 7fae
000000c0: 04c2 cb56 f2c5 647f 0d34 2c32 7f7d b1c0
000000d0: a5dd 81fb 0c0b 9cff 00ec d80f c67f 4732
000000e0: f7ed ee27 157f 3838 5724 7ff6 ece9 3ef6
000000f0: ba7f e9e2 06ec 69da ce98 f303 2eaf 7f74

model_1/expanded_conv_project/Conv2D i1 [8, 1, 1, 16]
0 -24 -1 1 125 1 -8 2
-1 -127 -88 -2 0 122 -1 0
0 -31 1 86 73 14 17 9
-1 -8 127 -42 0 27 -14 0
0 0 -3 -13 -54 3 13 -1
0 6 -17 2 0 127 -6 0
0 -7 -17 -127 78 23 66 18
0 59 -3 40 0 -2 17 0
0 56 -29 32 -54 25 127 0
0 -57 21 -5 0 -2 14 0
0 -17 -11 -2 -19 -24 -12 14
-1 10 -3 -43 0 -5 127 0
0 18 0 0 46 -20 -28 -5
0 -116 118 68 0 127 60 0
0 13 -14 127 7 -1 10 13
-1 65 -56 78 0 -10 52 0
00000000: 00e8 ff01 7d01 f802 ff81 a8fe 007a ff00
00000010: 00e1 0156 490e 1109 fff8 7fd6 001b f200
00000020: 0000 fdf3 ca03 0dff 0006 ef02 007f fa00
00000030: 00f9 ef81 4e17 4212 003b fd28 00fe 1100
00000040: 0038 e320 ca19 7f00 00c7 15fb 00fe 0e00
00000050: 00ef f5fe ede8 f40e ff0a fdd5 00fb 7f00
00000060: 0012 0000 2eec e4fb 008c 7644 007f 3c00
00000070: 000d f27f 07ff 0a0d ff41 c84e 00f6 3400

model_1/expanded_conv_depthwise_BN/FusedBatchNormV3;model_1/expanded_conv_depthwise/depthwise;model_1/block_5_project/Conv2D i1 [1, 3, 3, 16]
-108 18 -82 -126 39 -67 80 -76
-90 -3 -8 29 -127 4 54 -73
51 25 -127 127 127 -127 127 -127
-84 127 -127 52 -105 5 127 -25
24 -24 91 -2 -73 67 -94 78
-95 -27 4 -16 61 1 -102 -29
-127 127 -22 14 -44 16 -28 14
-28 0 3 -110 -49 8 -30 -14
-78 -42 -57 -14 -8 -25 8 -27
-108 -89 21 -12 -104 -127 1 23
14 1 65 2 2 34 -25 34
-127 6 -2 1 -21 11 -4 43
-115 -72 69 2 -6 39 -39 53
-76 0 0 5 40 2 -27 23
23 -4 31 -1 -27 40 -34 21
-125 -13 0 85 -58 0 -29 -111
21 -7 19 0 4 15 9 23
-115 4 -1 -127 107 3 17 -127
00000000: 9412 ae82 27bd 50b4 a6fd f81d 8104 36b7
00000010: 3319 817f 7f81 7f81 ac7f 8134 9705 7fe7
00000020: 18e8 5bfe b743 a24e a1e5 04f0 3d01 9ae3
00000030: 817f ea0e d410 e40e e400 0392 cf08 e2f2
00000040: b2d6 c7f2 f8e7 08e5 94a7 15f4 9881 0117
00000050: 0e01 4102 0222 e722 8106 fe01 eb0b fc2b
00000060: 8db8 4502 fa27 d935 b400 0005 2802 e517
00000070: 17fc 1fff e528 de15 83f3 0055 c600 e391
00000080: 15f9 1300 040f 0917 8d04 ff81 6b03 1181

model_1/Conv1/Conv2D i1 [16, 3, 3, 3]
0 0 0 0 0 0 0 0
0 0 0 0 0 0 0 0
0 0 0 0 0 0 0 0
0 0 0 43 -9 33 -8 -28
22 -127 -127 -57 -1 -9 4 -28
-4 1 -7 -40 11 -7 14 3
-10 2 1 32 -26 14 29 -6
-7 72 114 0 41 -40 7 10
12 -1 67 127 -30 20 -6 -8
51 -71 18 79 -47 -24 39 -56
15 13 43 8 38 104 24 1
6 -5 26 41 9 66 127 22
-18 -23 -1 9 5 6 26 25
5 -6 -9 -3 17 69 -16 1
87 -10 -22 23 7 24 91 40
15 127 25 26 67 -6 42 79
27 34 123 9 -25 33 23 -2
-2 -122 -11 0 -100 -10 29 -23
-5 -45 -127 -8 -45 -106 -3 16
-15 -5 13 -10 1 4 0 3
18 -2 24 -65 33 47 -88 40
8 -21 9 37 -96 62 64 -127
73 6 -28 17 21 -35 14 14
-45 26 -15 6 -1 -35 15 -2
-112 -43 -7 -27 20 -6 -13 -7
-4 -127 -96 -13 -8 -8 -1 -25
32 -13 -13 11 -5 -25 23 -9
-126 -119 -126 -123 -114 -120 -116 -107
-109 -125 -119 -127 -122 -114 -120 -115
-107 -109 -126 -120 -127 -121 -112 -116
-113 -102 -100 -23 -7 6 -22 -17
-9 -6 -7 -22 109 122 -5 76
00000000: 0000 0000 0000 0000 0000 0000 0000 0000
00000010: 0000 0000 0000 0000 0000 002b f721 f8e4
00000020: 1681 81c7 fff7 04e4 fc01 f9d8 0bf9 0e03
00000030: f602 0120 e60e 1dfa f948 7200 29d8 070a
00000040: 0cff 437f e214 faf8 33b9 124f d1e8 27c8
00000050: 0f0d 2b08 2668 1801 06fb 1a29 0942 7f16
00000060: eee9 ff09 0506 1a19 05fa f7fd 1145 f001
00000070: 57f6 ea17 0718 5b28 0f7f 191a 43fa 2a4f
00000080: 1b22 7b09 e721 17fe fe86 f500 9cf6 1de9
00000090: fbd3 81f8 d396 fd10 f1fb 0df6 0104 0003
000000a0: 12fe 18bf 212f a828 08eb 0925 a03e 4081
000000b0: 4906 e411 15dd 0e0e d31a f106 ffdd 0ffe
000000c0: 90d5 f9e5 14fa f3f9 fc81 a0f3 f8f8 ffe7
000000d0: 20f3 f30b fbe7 17f7 8289 8285 8e88 8c95
000000e0: 9383 8981 868e 888d 9593 8288 8187 908c
000000f0: 8f9a 9ce9 f906 eaef f7fa f9ea 6d7a fb4c
